tonicnet-weights.pt (torch, 887103 bytes, 10 tensors)

embedding_x.weight f4 [99, 100]
0.36920398 0.5292829 -0.052986458 0.48088634 0.88979095 -0.054308817 0.10615354 0.5828132
0.11248212 -0.21026886 -0.20463254 0.44611317 0.16336787 -0.1559416 0.46918583 -0.42039773
0.4305492 -0.5750264 -0.3412882 0.41422915 0.14397526 0.16244346 0.24922436 -0.20013829
0.7423211 0.21347883 0.47763702 0.6702247 -0.2875456 -0.3995809 -0.2355101 0.252668
-0.5276949 -0.18970579 0.39618984 0.14118145 -0.26856127 -0.4186495 0.21778195 -1.2265538
0.615996 0.21645288 -0.467329 0.06339013 0.47100058 0.08128094 0.025710633 0.16122466
-0.8566659 0.66328645 0.36356863 -0.39869207 -0.010413553 -0.7671629 -0.10476819 0.26172712
0.59379625 0.81545764 -0.5473952 -0.14801517 -0.010389866 0.075069256 0.1721469 -0.540836
-0.08588421 0.06627731 0.2694316 0.08799 -0.13026527 -0.28830117 -0.4002281 0.59001523
-0.022639424 -0.17241271 -0.13737753 -0.07419547 -0.12917176 0.119575046 0.1660967 -1.2313678
0.07135873 -0.36194435 -0.06711225 0.12015121 0.14161061 0.49859694 0.01108035 0.25276515
0.09823492 -0.049145967 0.5864948 0.22041531 -0.064186715 0.24529079 0.095077336 -0.09356935
0.060499143 0.4180219 0.20182718 0.47016048 -0.021343304 -0.017032553 0.0045125857 0.00078132004
0.0185575 -0.011262082 0.028477814 0.011946488 -0.023702621 0.047512326 0.028002117 0.0050149076
0.025686096 -0.031716906 0.0052431 -0.014536522 0.024465587 0.015737478 -0.01664592 -0.023331273
-0.009763099 0.04090109 -0.01964581 0.034513418 0.04343785 -0.019994045 0.009571709 -0.017108906
-0.031163752 -7.645041e-05 -0.036278415 -0.043530703 0.042298865 -0.031791795 0.03458638 0.032144297
0.032883856 -0.030241787 0.03594016 -0.020157492 0.0012427792 -0.048788037 -0.010818243 -0.026401473
0.04477345 -0.008287869 -0.0076703653 0.041151416 -0.04564419 0.0111068 0.028615307 -0.007785309
2.9910356e-05 -0.017968357 -0.006116152 0.049288694 0.022728268 -0.008818172 -0.0012100562 -0.031207955
-0.043126907 0.041332792 0.019928824 0.011023451 0.033878837 0.02009279 0.03702848 -0.047599472
0.0012540221 -0.022038663 -0.02379427 0.039102208 -0.01760273 -0.007497024 0.039387908 -0.045800198
0.02669612 0.0012598522 -0.011998117 0.011860084 -0.04435861 -0.036104966 -0.035830952 -0.04726839
-0.018547844 0.044792857 -0.00085737556 -0.0038833506 0.031939697 0.02603719 0.023690868 0.041240778
-0.03721056 0.04020163 0.011751413 0.033402633 -0.0054211244 0.043205325 0.03667635 -0.011335649
0.2307451 0.12512304 -0.0017943801 -0.22596306 -0.1415554 -0.08965677 0.073622786 -0.044572517
-0.112256624 0.021399533 -0.10128268 -0.047447115 -0.08021421 0.25964403 0.12696394 -0.13056834
0.066956155 -0.15809748 0.01984561 0.009865318 0.3244328 -0.077071376 -0.15873036 -0.32536253
-0.04340047 -0.12116796 -0.10666389 0.16809088 0.04510054 0.20297857 -0.0864278 -0.08954012
0.035993814 -0.012057333 0.3243439 -0.1283802 0.0368046 0.1380527 0.120700195 -0.022839371
-0.18868744 -0.12585919 0.172002 0.01428746 -0.032064296 -0.006608124 0.28314576 -0.0021322041
-0.040088583 0.14861067 0.19637397 0.04940159 0.25080326 -0.18562275 0.0066277254 -0.009906633
00000000: 4e08 bd3e 167f 073f 5408 59bd bc36 f63e
00000010: 57c9 633f ec72 5ebd 0767 d93d 3f33 153f
00000020: 075d e63d b850 57be 318b 51be f268 e43e
00000030: e849 273e 28af 1fbe 2039 f03e 5f3e d7be
00000040: f270 dc3e ee34 13bf 54bd aebe d815 d43e
00000050: 406e 133e 9457 263e ac34 7f3e 0df1 4cbe
00000060: c108 3e3f 329a 5a3e d78c f43e d993 2b3f
00000070: 2d39 93be de95 ccbe 8f29 71be b35d 813e
00000080: 0317 07bf 3c42 42be 65d9 ca3e df91 103e
00000090: dd80 89be 3a59 d6be 3b02 5f3e b7ff 9cbf
000000a0: eab1 1d3f d3a5 5d3e bf45 efbe afd2 813d
000000b0: fd26 f13e 9f76 a63d 1b9f d23c 1418 253e
000000c0: 754e 5bbf 24cd 293f ab25 ba3e 5e21 ccbe
000000d0: 9b9d 2abc ca64 44bf b490 d6bd 1901 863e
000000e0: 0803 183f d5c1 503f 1822 0cbf 4a91 17be
000000f0: 423a 2abc e9bd 993d 4747 303e 3a74 0abf
00000100: 10e4 afbd 66bc 873d f0f2 893e 1a34 b43d
00000110: 4264 05be 369c 93be b3ea ccbe 3d0b 173f
00000120: 5076 b9bc f58c 30be b2ac 0cbe cbf3 97bd
00000130: 9a45 04be c3e3 f43d 4115 2a3e 769d 9dbf
00000140: 8724 923d c550 b9be 2672 89bd d611 f63d
00000150: 5f02 113e 1948 ff3e 5b8a 353c 6f6a 813e
00000160: 642f c93d 484d 49bd 8624 163f 8db4 613e
00000170: 5374 83bd 822d 7b3e e8b7 c23d 4aa1 bfbd
00000180: f3cd 773d f706 d63e c9ab 4e3e e0b8 f03e
00000190: 27d8 aebc da87 8bbc 50de 933b 80d1 4c3a
000001a0: e605 983c 9884 38bc 4e4a e93c 34bb 433c
000001b0: 002c c2bc 499c 423d b264 e53c 1854 a43b
000001c0: a66b d23c 96e9 01bd 50ce ab3b 982a 6ebc
000001d0: 0e6c c83c e2eb 803c 065d 88bc 3a21 bfbc
000001e0: 68f5 1fbc e787 273d 40f0 a0bc f15d 0d3d
000001f0: e3eb 313d 8dca a3bc a8d2 1c3c fa27 8cbc
00000200: 204b ffbc 0054 a0b8 ad98 14bd 404d 32bd
00000210: 9341 2d3d 1d38 02bd 73aa 0d3d bda9 033d
00000220: 39b1 063d a0bd f7bc fd35 133d 5321 a5bc
00000230: c0e4 a23a f7d5 47bd 003f 31bc e747 d8bc
00000240: 5d64 373d d8c9 07bc b057 fbbb 638e 283d
00000250: 67f5 3abd 4cf9 353c a66a ea3c e81b ffbb
00000260: 00e8 fa37 6032 93bc 006a c8bb f1e2 493d
00000270: a230 ba3c 187a 10bc c09a 9eba d3a7 ffbc
00000280: d7a5 30bd 934c 293d c641 a33c b49b 343c
00000290: 89c4 0a3d a299 a43c 2dab 173d aaf7 42bd
000002a0: 005e a43a 6d8a b4bc 33ec c2bc a329 203d
000002b0: 9a33 90bc 98a9 f5bb 3755 213d fd98 3bbd
000002c0: d2b1 da3c a021 a53a c093 44bc cc50 423c
000002d0: 60b1 35bd cde2 13bd 7ac3 12bd 809c 41bd
000002e0: a6f1 97bc b778 373d 80c1 60ba d07f 7ebb
000002f0: 33d3 023d f24b d53c 5a13 c23c 17ec 283d
00000300: 1a6a 18bd 77aa 243d 0089 403c 33d1 083d
00000310: b0a3 b1bb 11f8 303d f139 163d 28b9 39bc
00000320: 7248 6c3e 4120 003e 6831 ebba dc62 67be
00000330: e6f3 10be f89d b7bd 8bc7 963d ac91 36bd
00000340: cde6 e5bd 134e af3c 4b6d cfbd e857 42bd
00000350: 5947 a4bd 10f0 843e d602 023e b5b3 05be
00000360: 4f20 893d 4ee4 21be 4393 a23c 25a2 213c
00000370: 0e1c a63e 99d7 9dbd 368a 22be eb95 a6be
00000380: b1c4 31bd e826 f8bd 9972 dabd 0420 2c3e
00000390: 58bb 383d 9dd9 4f3e 0f01 b1bd cf60 b7bd
000003a0: 406e 133d 1f8c 45bc 6710 a63e 1976 03be
000003b0: 6cc0 163d b05d 0d3e aa31 f73d a219 bbbc
000003c0: 4837 41be 3be1 00be 4b21 303e f315 6a3c
000003d0: da55 03bd f688 d8bb 7bf8 903e 73bc 0bbb
000003e0: ed33 24bd 652d 183e 4216 493e 5259 4a3d
000003f0: 4969 803e e413 3ebe 642d d93b 6e4f 22bc

embedding_r.weight f4 [80, 32]
0.088699415 0.0059562824 0.024115529 0.006587028 -0.10292564 -0.0056073144 -0.010661557 0.016988827
0.0013132342 -0.050717898 -0.053441226 0.0012594787 0.05100601 -0.032178458 0.0004419621 -0.013976056
-0.12968522 -0.021483675 -0.004609683 -0.016246034 0.014837922 0.013000618 -0.0038962092 -0.022408176
-0.0049071824 -0.028307663 -0.0097876545 0.027316475 -0.017863384 0.0016077518 -0.048942555 0.016099995
-0.19893609 0.0026803385 0.04604754 0.006867391 -0.017688744 -0.028349044 0.025526581 0.010818972
-0.01216718 0.007186139 0.019334141 -0.015620654 -0.13228506 0.068886444 -0.008653419 -0.041346062
0.022405325 0.016944434 -0.00845643 0.023304483 -0.054360323 0.0057902066 -0.022165261 -0.019180255
-0.009591899 0.015406112 0.022318397 -0.022014832 0.0013445697 0.030258367 0.0013301885 0.0071088453
0.047936425 0.002918584 -0.06498825 -0.0049518305 0.017413136 -0.0016400552 -0.010530869 0.003401362
0.043209415 0.0031871207 0.065107115 0.026591912 -0.004064493 -0.01318505 -0.008011917 0.0074917004
0.20677228 -0.021527115 0.022448577 -0.026113452 -0.004278412 0.13166553 0.03799443 0.036591936
0.015829556 -0.016186362 -0.022378076 -0.05352002 -0.026523797 0.005799831 0.015345451 -0.055623617
-0.18442383 -0.049343072 -0.08963516 -0.009843321 0.17925347 -0.020690287 0.040233772 0.017001329
0.0102496585 0.018521305 -0.015126845 -0.003724567 0.028826308 -0.122271195 -0.015572084 0.10326933
0.06276595 0.04111475 -0.082273185 0.017420962 0.06932604 -0.112844035 -0.016323218 0.008869058
-0.0082191415 0.08773154 0.019192152 -0.0023328979 0.00723614 -0.0025355779 -0.031869568 -0.018901313
0.1552596 -0.01950349 0.080694795 0.029590255 -0.009929472 -0.0013420574 0.016109783 -0.008804269
-0.031122766 0.13762914 0.11938135 -0.016538488 -0.05466807 0.02148195 0.020392042 0.08530678
-0.1122013 0.012765417 -0.043622524 -0.017826894 0.10235223 0.09732372 0.039402243 -0.033907764
0.010439799 0.021469247 -0.0041704522 0.092352666 0.009709941 -0.040427275 0.116949745 -0.12435237
-0.1022571 -0.0033355285 0.144401 0.03521895 0.045323595 0.03950188 0.031291574 -0.031624876
0.0022246225 -0.07047069 0.2829814 0.05725671 0.027493695 -0.12826306 0.061414797 0.04935902
0.09201901 0.018555079 -0.019567618 -0.034974553 -0.028055081 -0.0049283393 -0.047644377 -0.08638817
-0.0389739 0.102415234 0.021104839 0.0050883093 0.11326473 -0.060844664 0.0734622 0.0033027115
0.109533794 -0.0186271 -0.11274699 -0.031996552 0.28241888 0.025861677 -0.021769457 -0.049311846
-0.018773273 0.047094572 0.2649042 -0.062356725 0.060330994 0.056416985 0.01997062 -0.020826314
0.01888378 -0.06329079 -0.048369072 -0.06518467 -0.08621735 0.070893146 0.007581349 -0.03582149
0.040920537 0.0961699 -0.034127817 0.000526864 0.038026355 -0.06238248 -0.014912933 -0.00272654
-0.040886335 0.006407498 -0.018164176 -0.020735053 0.23385063 0.041997153 -0.08644937 -0.09553112
0.05500633 -0.011139258 -0.095384985 -0.019040098 0.1273328 0.094194755 0.096228264 -0.01686955
0.118285544 0.07185275 0.009749417 -0.04683992 -0.06388546 -0.2845917 0.030007362 -0.0044988277
0.004189108 -0.10077731 0.055452675 0.08717481 0.12798145 -0.07203521 0.03977773 -0.0844822
00000000: 0aa8 b53d eb2c c33b ee8d c53c ffd7 d73b
00000010: aeca d2bd 90bd b7bb d0ad 2ebc 272c 8b3c
00000020: d420 ac3a 92bd 4fbd 30e5 5abd 1815 a53a
00000030: aeeb 503d 8fcd 03bd 26b7 e739 d4fb 64bc
00000040: 34cc 04be 88fe afbc d30c 97bb 6716 85bc
00000050: c11a 733c 8b00 553c 8b57 7fbb 5a91 b7bc
00000060: 6ecc a0bb 79e5 e7bc 665c 20bc cdc6 df3c
00000070: 3b56 92bc 33bb d23a fd77 48bd 23e4 833c
00000080: e7b5 4bbe 9ea8 2f3b 589c 3c3d da07 e13b
00000090: fce7 90bc 413c e8bc 1f1d d13c 0f42 313c
000000a0: da58 47bc b479 eb3b a262 9e3c c6ed 7fbc
000000b0: bc75 07be 5614 8d3d 12c7 0dbc 7d5a 29bd
000000c0: 5f8b b73c 0ecf 8a3c d78c 0abc 0be9 be3c
000000d0: eea8 5ebd c6bb bd3b ec93 b5bc e91f 9dbc
000000e0: 5727 1dbc eb69 7c3c 12d5 b63c 7358 b4bc
000000f0: 463c b03a 65e0 f73c b859 ae3a 51f1 e83b
00000100: fc58 443d b745 3f3b 8f18 85bd f742 a2bb
00000110: fea5 8e3c 1ff7 d6ba aa89 2cbc 63e9 5e3b
00000120: 5bfc 303d 03df 503b e156 853d 48d7 d93c
00000130: 702f 85bb 1c06 58bc 6a44 03bc f07c f53b
00000140: 1dbc 533e a259 b0bc 14e6 b73c e1eb d5bc
00000150: ec31 8cbb 54d3 063e 0ca0 1b3d 6de1 153d
00000160: fcac 813c 4399 84bc 3a52 b7bc cf37 5bbd
00000170: 6f48 d9bc 820c be3b 7d6b 7b3c 97d5 63bd
00000180: 9ad9 3cbe f61b 4abd a492 b7bd e145 21bc
00000190: 398e 373e ad7e a9bc 2bcc 243d 5f46 8b3c
000001a0: 2fee 273c feb9 973c 96d6 77bc dd17 74bb
000001b0: 2625 ec3c 5269 fabd 0e22 7fbc df7e d33d
000001c0: 6f8b 803d f167 283d d87e a8bd 68b6 8e3c
000001d0: d0fa 8d3d c61a e7bd 45b8 85bc 874f 113c
000001e0: 94a9 06bc 98ac b33d dc38 9d3c 88e3 18bb
000001f0: 241d ed3b f02b 26bb aa89 02bd edd6 9abc
00000200: 5ffc 1e3e c8c5 9fbc 5043 a53d 4367 f23c
00000210: 39af 22bc f9e7 afba aaf8 833c c83f 10bc
00000220: 2cf5 febc a7ee 0c3e 367e f43d b97b 87bc
00000230: a0eb 5fbd eafa af3c 360d a73c 52b5 ae3d
00000240: ccc9 e5bd 0a26 513c 88ad 32bd b509 92bc
00000250: 0c9e d13d a951 c73d 3f64 213d dee2 0abd
00000260: b10b 2b3c 46e0 af3c 4aa8 88bb 6523 bd3d
00000270: 7216 1f3c 1297 25bd 5983 ef3d 75ac febd
00000280: 2c6c d1bd e298 5abb dbdd 133e bf41 103d
00000290: 3ca5 393d b9cc 213d 982b 003d 1689 01bd
000002a0: f9ca 113b f052 90bd f0e2 903e 0386 6a3d
000002b0: 753a e13c 6457 03be 158e 7b3d af2c 4a3d
000002c0: 7674 bc3d d200 983c 454c a0bc 7a41 0fbd
000002d0: c5d3 e5bc e87d a1bb c026 43bd 48ec b0bd
000002e0: 19a3 1fbd 14bf d13d 0ee4 ac3c d5bb a63b
000002f0: 57f7 e73d 4138 79bd 5a73 963d 4e72 583b
00000300: 4153 e03d dc97 98bc e5e7 e6bd d10e 03bd
00000310: 3599 903e dedb d33c dc55 b2bc 38fb 49bd
00000320: 68ca 99bc 3de6 403d 86a1 873e c469 7fbd
00000330: a21d 773d 7f15 673d 6d99 a33c f29b aabc
00000340: 28b2 9a3c 9a9e 81bd a61e 46bd 8a7f 85bd
00000350: b992 b0bd 6d30 913d f76c f83b 8eb9 12bd
00000360: 4b9c 273d b9f4 c43d 9cc9 0bbd 3f1d 0a3a
00000370: 86c1 1b3d c584 7fbd 6055 74bc c0af 32bb
00000380: 6e78 27bd fdf5 d13b 0acd 94bc 8fdc a9bc
00000390: 8a76 6f3e 3505 2c3d 5e0c b1bd d2a5 c3bd
000003a0: 514e 613d 6f81 36bc 3459 c3bd fbf9 9bbc
000003b0: 8863 023e 2ee9 c03d 5313 c53d 0332 8abc
000003c0: b13f f23d 8927 933d 05bc 1f3c 37db 3fbd
000003d0: 61d6 82bd 01b6 91be 00d2 f53c e76a 93bb
000003e0: c944 893b 5664 cebd 5822 633d b588 b23d
000003f0: 920d 033e 3287 93bd f9ed 223d 0105 adbd

embedding_p.weight f4 [16, 8]
-0.017304316 0.06134415 -0.016294211 -0.0061713047 -0.31120315 0.06682438 0.15705618 -0.054658715
-0.07578736 0.07489175 -0.17112902 -0.11959828 0.03125905 -0.06723068 0.013839132 -0.09955224
0.056339454 0.040687617 -0.044630673 0.061886285 -0.045215465 -0.14343491 -0.06300388 0.02466002
0.2136647 -0.11434628 0.09718157 -0.14252466 0.53528714 0.09315065 0.13846241 -0.07628798
-0.079524755 -0.06371264 -0.010776978 0.014610061 -0.2637059 0.081175655 0.021890197 0.011980952
-0.033268705 -0.027980845 0.026629154 -0.14163396 -0.11543148 -0.16467711 -0.031931832 -0.14496915
0.033655692 0.06129255 -0.062913775 0.0034226277 -0.014265719 -0.15912835 0.046406668 -0.04341937
0.33133355 0.0155409975 0.016320849 -0.22258095 0.34872967 0.22376652 -0.0323626 -0.10447088
-0.05519469 -0.10675061 -0.063117675 0.0813867 -0.23062977 0.044406254 0.03890485 -0.02790947
0.012025972 -0.014246763 -0.16955784 -0.12013754 -0.067198806 -0.09867567 0.005443544 0.032534312
0.037675012 0.030765995 -0.13600332 0.024626313 0.033177644 -0.12660375 -0.048001446 0.022661043
0.3063349 -0.08867912 0.23365653 -0.2663049 0.29139644 0.100917965 0.117045976 0.1287775
-0.056006268 -0.12898256 -0.104962215 0.04554173 -0.23554581 0.08927571 -0.050920047 0.0084513305
0.10275089 -0.10140724 -0.02270595 -0.007881641 -0.13421492 -0.16641016 0.01628105 -0.13599464
-0.017033696 -0.0064675733 0.048773345 -0.088819966 -0.09052582 -0.1952138 -0.027629167 -0.003505451
-0.012673214 0.112442315 0.19378383 0.018668612 0.6099418 0.19518676 -0.03834567 0.059581347
00000000: c8c1 8dbc 0144 7b3d 707b 85bc a838 cabb
00000010: 0556 9fbe 38db 883d 56d3 203e d1e1 5fbd
00000020: 6736 9bbd d960 993d 723c 2fbe f1ef f4bd
00000030: 7d09 003d 3db0 89bd 87bd 623c 0be2 cbbd
00000040: 33c4 663d 0fa8 263d a7ce 36bd 797c 7d3d
00000050: da33 39bd 9ae0 12be 2e08 81bd cf03 ca3c
00000060: ebca 5a3e 622e eabd 2207 c73d fcf1 11be
00000070: 9408 093f c5c5 be3d 17c9 0d3e df3c 9cbd
00000080: e0dd a2bd c67b 82bd ec91 30bc 0a5f 6f3c
00000090: 7604 87be 6c3f a63d 1253 b33c c14b 443c
000000a0: c444 08bd 1638 e5bc 6225 da3c 7e08 11be
000000b0: 5767 ecbd 1ea1 28be f4ca 02bd cb72 14be
000000c0: 8dda 093d e60d 7b3d f0d8 80bd 2a4e 603b
000000d0: c3ba 69bc 8bf2 22be eb14 3e3d 82d8 31bd
000000e0: 8da4 a93e ab9f 7e3c 4db3 853c 43ec 63be
000000f0: b28c b23e 0d23 653e a58e 04bd d4f4 d5bd
00000100: d413 62bd 10a0 dabd d743 81bd 12ae a63d
00000110: 362a 6cbe 55e3 353d b15a 1f3d 67a2 e4bc
00000120: 9508 453c 416b 69bc 92a0 2dbe ac0a f6bd
00000130: 879f 89bd 7816 cabd c25f b23b b342 053d
00000140: 1d51 1a3d f808 fc3c 7444 0bbe 1fbd c93c
00000150: 48e5 073d 6aa4 01be 2a9d 44bd a7a3 b93c
00000160: eed7 9c3e 669d b5bd a843 6f3e 1e59 88be
00000170: ea31 953e 14ae ce3d cdb5 ef3d 40de 033e
00000180: d466 65bd 0114 04be 6ef6 d6bd f789 3a3d
00000190: ec32 71be 2fd6 b63d 8a91 50bd 7377 0a3c
000001a0: 0f6f d23d 99ae cfbd d401 babc 0022 01bc
000001b0: a36f 09be 6d67 2abe d65f 853c 2e42 0bbe
000001c0: 408a 8bbc f0ed d3bb 8fc6 473d 3ee7 b5bd
000001d0: 9a65 b9bd 20e6 47be 9056 e2bc b5bb 65bb
000001e0: 50a3 4fbc 2848 e63d 456f 463e ebee 983c
000001f0: 2525 1c3f 0adf 473e 5910 1dbd 920b 743d

dense.bias f4 [99]
-5.578883 -0.55493295 0.5153318 -0.082548484 -1.0467354 -2.2531388 0.4654205 0.025969353
-0.7024962 -2.1922245 0.25773278 -0.0337182 -1.3289751 -2.271627 0.38109463 -0.09603497
-1.4314444 -2.2217088 0.5583329 -0.011493193 -0.81241375 -1.8192667 0.4371667 -0.1100172
-1.2506657 -1.9607315 0.3106606 -0.06465916 -0.86286217 -2.3757 0.28212017 -0.17077193
-1.4295918 -2.4260776 0.5541056 -0.26814124 -0.95535225 -2.1454027 0.5254497 -0.093003556
-0.70504576 -2.4739995 0.053518534 -0.1811808 -1.0689969 -2.3338902 0.21172304 -0.35953122
-1.1805323 -2.1273 2.0646205 -1.9402897 -0.7523443 -2.3749802 -2.0256896 -1.8110597
-1.6476725 -1.8293334 -1.1606163 -1.0714209 -0.70928144 -0.694236 -0.5348782 -0.4182775
-0.3730749 -0.07392962 0.32654753 0.6080762 0.4467242 0.24250872 0.6436233 0.48148334
0.55635005 0.18838023 0.59812254 0.41766396 0.15165521 0.40554413 0.05307292 0.61622727
0.04670693 0.2919033 0.036759302 0.29980147 0.00019822989 0.32051817 0.4790236 0.06770561
0.1330395 0.037154697 -0.124880336 -0.004604041 -0.075473174 0.049650617 -0.341457 -0.51274323
-0.8955005 -1.468695 -1.6296072
00000000: 3686 b2c0 1610 0ebf c9ec 033f 2e0f a9bd
00000010: 6dfb 85bf 6d33 10c0 994b ee3e aebd d43c
00000020: cad6 33bf 684d 0cc0 8df5 833e 181c 0abd
00000030: db1b aabf 5662 11c0 d61e c33e fbad c4bd
00000040: 9239 b7bf 7a30 0ec0 e8ee 0e3f f24d 3cbc
00000050: 59fa 4fbf bbdd e8bf 50d4 df3e b350 e1bd
00000060: d015 a0bf 40f9 fabf e80e 9f3e 066c 84bd
00000070: 89e4 5cbf 780b 18c0 0e72 903e d6de 2ebe
00000080: ddfc b6bf db44 1bc0 ddd9 0d3f cf49 89be
00000090: f791 74bf 474e 09c0 df83 063f a678 bebd
000000a0: e17d 34bf 0256 1ec0 4036 5b3d 7687 39be
000000b0: e4d4 88bf 755e 15c0 edcd 583e 7a14 b8be
000000c0: af1b 97bf af25 08c0 be22 0440 6a5b f8bf
000000d0: a399 40bf adff 17c0 e6a4 01c0 ced0 e7bf
000000e0: efe6 d2bf 9927 eabf 138f 94bf 5224 89bf
000000f0: 7893 35bf 73b9 31bf c7ed 08bf 7828 d6be
00000100: ac03 bfbe 6a68 97bd 3d31 a73e e2aa 1b3f
00000110: 09b9 e43e 3554 783e 7fc4 243f fc84 f63e
00000120: f56c 0e3f bfe6 403e 8f1e 193f 0dd8 d53e
00000130: 814b 1b3e 7ba3 cf3e fd62 593d 12c1 1d3f
00000140: c44f 3f3d 5974 953e ec90 163d 947f 993e
00000150: eedb 4f39 f51a a43e 9542 f53e 3da9 8a3d
00000160: 823b 083e 862f 183d 43c1 ffbd 7fdd 96bb
00000170: ae91 9abd 725e 4b3d 74d3 aebe 2443 03bf
00000180: 853f 65bf 33fe bbbf f896 d0bf

gru_1.bias_ih_l0 f4 [300]
-0.33334044 -0.03237736 -0.2887084 -0.5467026 -0.53986424 -0.09186411 -0.45955214 -0.039810397
-0.32335868 -0.46353635 -0.12412099 -0.17996259 -0.43203348 -0.17514023 -0.25376907 -0.23083207
-0.2573492 -0.43549255 -0.21362281 -0.054443 -0.27462307 -0.57285565 -0.09715737 -0.021697033
0.016584428 -0.37829673 -0.56011355 -0.106212884 -0.27712736 -0.4985257 -0.1748647 -0.11347831
-0.17534633 -0.33304307 -0.27202266 -0.18552876 -0.27308995 -0.18038452 -0.3124517 -0.3386917
-0.08489553 -0.24053614 -0.5522325 -0.13215688 -0.22531255 -0.31311566 -0.374404 0.024955813
-0.2532577 -0.4581099 -0.06303656 -0.66683733 -0.8040957 -0.37106633 -0.44107187 -0.1018426
-0.16784047 -0.2843218 -0.846024 -0.3549245 -0.7078587 -0.3022977 -0.21266973 -0.32945836
-0.30254802 -0.27530748 -0.3236678 -0.6781828 -0.1236083 -0.35575712 -0.26041254 -0.5833392
-0.20206112 -0.08327538 0.009779593 -0.22743812 -0.65094703 -0.7099597 0.07482605 -0.37696806
-0.4029746 -0.24834116 -0.55884016 -0.080949165 -0.13784765 -0.41686085 -0.38660675 -0.3158861
-0.5649869 -0.23810346 -0.036813103 -0.40050602 -0.013848572 0.003215801 -0.5140096 -0.16197194
-0.35858175 -0.10455621 -0.498455 -0.16445994 0.17660846 -0.40258712 0.33683932 0.029837523
0.056053992 0.9278065 0.60093707 0.22436419 0.23271383 0.11032381 -0.18083389 0.2988637
0.7236207 0.20206344 0.47254294 0.18078278 0.41765094 0.2716655 0.031502545 -0.455377
0.25158927 0.34784558 1.1828734 -0.34011766 -1.106253 0.41980752 -0.2178297 -0.8974357
0.3575857 0.45305046 0.3232362 -0.31398386 -0.24386048 0.42041275 0.15172325 0.014717231
-0.009552861 0.48376188 0.18530422 -0.08016603 -0.20519927 -0.050584324 0.10873782 -0.3156932
0.009116375 0.6941814 -0.40243438 -0.13619237 -0.14746085 0.24283853 0.13497669 0.2829872
0.18043889 0.68878686 0.14671554 -0.35072803 0.1818707 -0.2933256 -0.022841342 0.9904856
0.022203432 -0.14446059 1.0400025 0.17389044 0.7381385 -0.09008166 0.07752375 0.3350707
-0.05028224 -0.28737172 -0.14870961 0.1060449 -0.2675824 -0.18166699 -0.604163 0.3164327
0.3611019 0.024201872 -0.1591835 -0.12017426 0.23163623 -0.3256934 -0.18366198 -0.3757688
-0.8242209 0.51180536 0.13435857 -0.17361996 -0.11401427 -0.109254524 -0.60262346 0.14648429
-0.33887696 -1.0222301 -0.15434001 0.4751769 -0.26228163 0.14196104 0.030653955 -0.19492374
0.010454398 0.022850705 -0.073891304 -0.027500704 0.04612037 -0.057756644 0.1293313 0.02224384
-0.023707243 -0.011608739 0.010080916 0.01622757 -0.04145035 0.021726428 -0.0021685294 0.017710943
-0.14510195 0.028579498 -0.045495898 -0.006272239 0.021067338 -0.008078109 0.04905815 -0.11766575
-0.050108325 0.10091799 -0.11153667 0.028592069 0.032794464 -0.059215214 0.04061129 0.00010641916
0.021895796 0.04554045 0.08649996 -0.07786737 0.07796977 -0.022184338 -0.009754945 -0.059610274
0.021423696 0.010086898 -0.05314802 0.03182342 0.0069291065 -0.057748616 0.0426854 -0.022187527
-0.018354803 0.09786475 0.006333206 0.026373293 -0.032910712 -0.016906084 0.006898627 0.047237907
00000000: 99ab aabe 1f9e 04bd 96d1 93be b4f4 0bbf
00000010: 8b34 0abf 4023 bcbd 6b4a ebbe 3a10 23bd
00000020: 458f a5be a354 edbe 2533 febd 1d48 38be
00000030: 7e33 ddbe f657 33be 05ee 81be 3e5f 6cbe
00000040: 46c3 83be e1f8 debe f0bf 5abe a0ff 5ebd
00000050: 659b 8cbe aba6 12bf 71fa c6bd fabd b1bc
00000060: 11dc 873c 1cb0 c1be 9a63 0fbf 2486 d9bd
00000070: a3e3 8dbe c33e ffbe bb0f 33be 5167 e8bd
00000080: fd8d 33be 9f84 aabe 8e46 8bbe 40fb 3dbe
00000090: 72d2 8bbe b8b6 38be abf9 9fbe 0069 adbe
000000a0: b5dd adbd 1b4f 76be 1c5f 0dbf 2254 07be
000000b0: 55b8 66be b250 a0be e2b1 bfbe 2270 cc3c
000000c0: feaa 81be 618d eabe 5019 81bd dab5 2abf
000000d0: 37d9 4dbf 68fc bdbe 2cd4 e1be da92 d0bd
000000e0: 5fde 2bbe a192 91be 0795 58bf aab8 b5be
000000f0: 3a36 35bf c4c6 9abe 18c6 59be c4ae a8be
00000100: 93e7 9abe 1af5 8cbe c9b7 a5be 639d 2dbf
00000110: 5926 fdbd cc25 b6be cb54 85be b855 15bf
00000120: 1ce9 4ebe 488c aabd 963a 203c 8ae5 68be
00000130: 77a4 26bf ebbf 35bf 663e 993d f501 c1be
00000140: b052 cebe 254d 7ebe 2610 0fbf adc8 a5bd
00000150: ef27 0dbe c96e d5be 52f1 c5be d3bb a1be
00000160: fba2 10bf 65d1 73be 56c9 16bd 200f cdbe
00000170: 1fe5 62bc 30c0 523b 2296 03bf f9db 25be
00000180: 0798 b7be 9121 d6bd 7e35 ffbe 3068 28be
00000190: d9d8 343e e61f cebe 3476 ac3e d26d f43c
000001a0: df98 653d ba84 6d3f 03d7 193f babf 653e
000001b0: 894c 6e3e 73f1 e13d 852c 39be aa04 993e
000001c0: 353f 393f b8e9 4e3e 26f1 f13e 1f1f 393e
000001d0: 58d6 d53e be17 8b3e d008 013d 2d27 e9be
000001e0: 4fd0 803e d118 b23e 6568 973f e723 aebe
000001f0: b399 8dbf 03f1 d63e c00e 5fbe 59be 65bf
00000200: 7915 b73e 3bf6 e73e 377f a53e 7ec2 a0be
00000210: 90b6 79be 5740 d73e 575d 1b3e 8a20 713c
00000220: 9a83 1cbc a3af f73e 64c0 3d3e 162e a4bd
00000230: c21f 52be 8231 4fbd efb1 de3d 8aa2 a1be
00000240: d95c 153c dfb5 313f e10b cebe 0376 0bbe
00000250: faff 16be aaaa 783e 5437 0a3e b3e3 903e
00000260: f9c4 383e 5654 303f 993c 163e a092 b3be
00000270: 503c 3a3e c62e 96be c41d bbbc 7790 7d3f
00000280: f9e3 b53c 7aed 13be cd1e 853f 5610 323e
00000290: a5f6 3c3f bc7c b8bd c6c4 9e3d 638e ab3e
000002a0: c0f4 4dbd 6322 93be 5547 18be 122e d93d
000002b0: 8f00 89be e906 3abe 6daa 1abf 7803 a23e
000002c0: 59e2 b83e 0143 c63c 0001 23be ec1d f6bd
000002d0: 0c32 6d3e 49c1 a6be e311 3cbe c564 c0be
000002e0: 2400 53bf ad05 033f 4b95 093e 6ec9 31be
000002f0: 5080 e9bd d6c0 dfbd 8845 1abf faff 153e
00000300: 4881 adbe 70d8 82bf 4f0b 1ebe 634a f33e
00000310: c749 86be 3c5e 113e 011e fb3c 179a 47be
00000320: ec48 2b3c 6731 bb3c 5354 97bd 2849 e1bc
00000330: b7e8 3c3d 3b92 6cbd 6d6f 043e b738 b63c
00000340: b135 c2bc 9532 3ebc 6d2a 253c aeef 843c
00000350: d8c7 29bd 9ffb b13c e31d 0ebb 8a16 913c
00000360: 9b95 14be 8d1f ea3c e859 3abd 5b87 cdbb
00000370: 6995 ac3c 0b5a 04bc 33f1 483d befa f0bd
00000380: 633e 4dbd 17ae ce3d 566d e4bd ea39 ea3c
00000390: 7d53 063d a78b 72bd 0658 263d 5a2d df38
000003a0: d05e b33c 9f88 3a3d e426 b13d ed78 9fbd
000003b0: 9dae 9f3d eebb b5bc 34d3 1fbc e729 74bd
000003c0: bf80 af3c 8443 253c bdb1 59bd 4659 023d
000003d0: 8f0d e33b d089 6cbd e3d6 2e3d 9ec2 b5bc
000003e0: d05c 96bc 506d c83d c886 cf3b ce0c d83c
000003f0: 62cd 06bd a17e 8abc e10d e23b 897c 413d

gru_1.bias_hh_l0 f4 [300]
-0.33334044 -0.03237736 -0.2887084 -0.5467026 -0.53986424 -0.09186411 -0.45955214 -0.039810397
-0.32335868 -0.46353635 -0.12412099 -0.17996259 -0.43203348 -0.17514023 -0.25376907 -0.23083207
-0.2573492 -0.43549255 -0.21362281 -0.054443 -0.27462307 -0.57285565 -0.09715737 -0.021697033
0.016584428 -0.37829673 -0.56011355 -0.106212884 -0.27712736 -0.4985257 -0.1748647 -0.11347831
-0.17534633 -0.33304307 -0.27202266 -0.18552876 -0.27308995 -0.18038452 -0.3124517 -0.3386917
-0.08489553 -0.24053614 -0.5522325 -0.13215688 -0.22531255 -0.31311566 -0.374404 0.024955813
-0.2532577 -0.4581099 -0.06303656 -0.66683733 -0.8040957 -0.37106633 -0.44107187 -0.1018426
-0.16784047 -0.2843218 -0.846024 -0.3549245 -0.7078587 -0.3022977 -0.21266973 -0.32945836
-0.30254802 -0.27530748 -0.3236678 -0.6781828 -0.1236083 -0.35575712 -0.26041254 -0.5833392
-0.20206112 -0.08327538 0.009779593 -0.22743812 -0.65094703 -0.7099597 0.07482605 -0.37696806
-0.4029746 -0.24834116 -0.55884016 -0.080949165 -0.13784765 -0.41686085 -0.38660675 -0.3158861
-0.5649869 -0.23810346 -0.036813103 -0.40050602 -0.013848572 0.003215801 -0.5140096 -0.16197194
-0.35858175 -0.10455621 -0.498455 -0.16445994 0.17660846 -0.40258712 0.33683932 0.029837523
0.056053992 0.9278065 0.60093707 0.22436419 0.23271383 0.11032381 -0.18083389 0.2988637
0.7236207 0.20206344 0.47254294 0.18078278 0.41765094 0.2716655 0.031502545 -0.455377
0.25158927 0.34784558 1.1828734 -0.34011766 -1.106253 0.41980752 -0.2178297 -0.8974357
0.3575857 0.45305046 0.3232362 -0.31398386 -0.24386048 0.42041275 0.15172325 0.014717231
-0.009552861 0.48376188 0.18530422 -0.08016603 -0.20519927 -0.050584324 0.10873782 -0.3156932
0.009116375 0.6941814 -0.40243438 -0.13619237 -0.14746085 0.24283853 0.13497669 0.2829872
0.18043889 0.68878686 0.14671554 -0.35072803 0.1818707 -0.2933256 -0.022841342 0.9904856
0.022203432 -0.14446059 1.0400025 0.17389044 0.7381385 -0.09008166 0.07752375 0.3350707
-0.05028224 -0.28737172 -0.14870961 0.1060449 -0.2675824 -0.18166699 -0.604163 0.3164327
0.3611019 0.024201872 -0.1591835 -0.12017426 0.23163623 -0.3256934 -0.18366198 -0.3757688
-0.8242209 0.51180536 0.13435857 -0.17361996 -0.11401427 -0.109254524 -0.60262346 0.14648429
-0.33887696 -1.0222301 -0.15434001 0.4751769 -0.26228163 0.14196104 0.030653955 -0.19492374
0.08652446 -0.04861846 0.18248853 -0.09518328 0.19858584 -0.017296476 0.029340947 0.0767365
0.03881446 0.018607117 -0.116229534 -0.046069067 -0.19898224 0.041842714 -0.09056808 -0.10987497
0.1318883 -0.11723588 0.2559563 -0.06543336 -0.23470919 -0.045775764 -0.16401206 0.0718579
0.1403479 -0.048280478 0.14632714 0.038819864 0.13743563 0.21310848 0.059084337 -0.04025661
0.079969294 -0.04300126 0.033458125 -0.05809582 -0.25094345 0.101723745 0.053081498 -0.04386484
-0.1022776 0.02315237 -0.105417505 -0.12071705 -0.07196686 -0.03916374 -0.113694154 0.11931411
0.048120566 0.07004329 0.02800314 -0.09364237 0.014323051 -0.030013083 -0.30522197 0.005442901
00000000: 99ab aabe 1f9e 04bd 96d1 93be b4f4 0bbf
00000010: 8b34 0abf 4023 bcbd 6b4a ebbe 3a10 23bd
00000020: 458f a5be a354 edbe 2533 febd 1d48 38be
00000030: 7e33 ddbe f657 33be 05ee 81be 3e5f 6cbe
00000040: 46c3 83be e1f8 debe f0bf 5abe a0ff 5ebd
00000050: 659b 8cbe aba6 12bf 71fa c6bd fabd b1bc
00000060: 11dc 873c 1cb0 c1be 9a63 0fbf 2486 d9bd
00000070: a3e3 8dbe c33e ffbe bb0f 33be 5167 e8bd
00000080: fd8d 33be 9f84 aabe 8e46 8bbe 40fb 3dbe
00000090: 72d2 8bbe b8b6 38be abf9 9fbe 0069 adbe
000000a0: b5dd adbd 1b4f 76be 1c5f 0dbf 2254 07be
000000b0: 55b8 66be b250 a0be e2b1 bfbe 2270 cc3c
000000c0: feaa 81be 618d eabe 5019 81bd dab5 2abf
000000d0: 37d9 4dbf 68fc bdbe 2cd4 e1be da92 d0bd
000000e0: 5fde 2bbe a192 91be 0795 58bf aab8 b5be
000000f0: 3a36 35bf c4c6 9abe 18c6 59be c4ae a8be
00000100: 93e7 9abe 1af5 8cbe c9b7 a5be 639d 2dbf
00000110: 5926 fdbd cc25 b6be cb54 85be b855 15bf
00000120: 1ce9 4ebe 488c aabd 963a 203c 8ae5 68be
00000130: 77a4 26bf ebbf 35bf 663e 993d f501 c1be
00000140: b052 cebe 254d 7ebe 2610 0fbf adc8 a5bd
00000150: ef27 0dbe c96e d5be 52f1 c5be d3bb a1be
00000160: fba2 10bf 65d1 73be 56c9 16bd 200f cdbe
00000170: 1fe5 62bc 30c0 523b 2296 03bf f9db 25be
00000180: 0798 b7be 9121 d6bd 7e35 ffbe 3068 28be
00000190: d9d8 343e e61f cebe 3476 ac3e d26d f43c
000001a0: df98 653d ba84 6d3f 03d7 193f babf 653e
000001b0: 894c 6e3e 73f1 e13d 852c 39be aa04 993e
000001c0: 353f 393f b8e9 4e3e 26f1 f13e 1f1f 393e
000001d0: 58d6 d53e be17 8b3e d008 013d 2d27 e9be
000001e0: 4fd0 803e d118 b23e 6568 973f e723 aebe
000001f0: b399 8dbf 03f1 d63e c00e 5fbe 59be 65bf
00000200: 7915 b73e 3bf6 e73e 377f a53e 7ec2 a0be
00000210: 90b6 79be 5740 d73e 575d 1b3e 8a20 713c
00000220: 9a83 1cbc a3af f73e 64c0 3d3e 162e a4bd
00000230: c21f 52be 8231 4fbd efb1 de3d 8aa2 a1be
00000240: d95c 153c dfb5 313f e10b cebe 0376 0bbe
00000250: faff 16be aaaa 783e 5437 0a3e b3e3 903e
00000260: f9c4 383e 5654 303f 993c 163e a092 b3be
00000270: 503c 3a3e c62e 96be c41d bbbc 7790 7d3f
00000280: f9e3 b53c 7aed 13be cd1e 853f 5610 323e
00000290: a5f6 3c3f bc7c b8bd c6c4 9e3d 638e ab3e
000002a0: c0f4 4dbd 6322 93be 5547 18be 122e d93d
000002b0: 8f00 89be e906 3abe 6daa 1abf 7803 a23e
000002c0: 59e2 b83e 0143 c63c 0001 23be ec1d f6bd
000002d0: 0c32 6d3e 49c1 a6be e311 3cbe c564 c0be
000002e0: 2400 53bf ad05 033f 4b95 093e 6ec9 31be
000002f0: 5080 e9bd d6c0 dfbd 8845 1abf faff 153e
00000300: 4881 adbe 70d8 82bf 4f0b 1ebe 634a f33e
00000310: c749 86be 3c5e 113e 011e fb3c 179a 47be
00000320: bc33 b13d 2624 47bd 46de 3a3e 74ef c2bd
00000330: 165a 4b3e 57b1 8dbc 6d5c f03c 0728 9d3d
00000340: e9fb 1e3d f46d 983c c009 eebd ebb2 3cbd
00000350: 00c2 4bbe 4463 2b3d c27b b9bd 2106 e1bd
00000360: ba0d 073e 5d19 f0bd b40c 833e ed01 86bd
00000370: 9b57 70be 5e7f 3bbd c7f2 27be 3c2a 933d
00000380: 5cb7 0f3e c0c1 45bd c8d6 153e 9401 1f3d
00000390: edbb 0c3e 1c39 5a3e 6b02 723d 1de4 24bd
000003a0: f1c6 a33d 1722 30bd 630b 093d e2f5 6dbd
000003b0: a97b 80be 8a54 d03d fc6b 593d 9eab 33bd
000003c0: eb76 d1bd 0aaa bd3c 22e5 d7bd 803a f7bd
000003d0: 5c63 93bd 286a 20bd 7bd8 e8bd f55a f43d
000003e0: 121a 453d db72 8f3d d766 e53c 92c7 bfbd
000003f0: 3bab 6a3c ffdd f5bc 0e46 9cbe 5d5a b23b

gru_2.bias_ih_l0 f4 [300]
-0.46413267 -0.07870964 -0.4999826 -0.41519058 -1.1350143 -1.1902356 -0.2581445 -0.71815634
-0.5303019 -0.72168064 -0.9385749 -1.2802429 -0.42173 -0.661738 -1.0364816 -0.8027025
-0.6214428 -0.8396434 -0.6506653 -0.80204976 -1.1402524 -0.15679118 -0.40681425 -0.6380677
-0.86699647 -0.5400336 -0.9220444 -0.30147424 -0.8466932 -0.12974034 -0.16827284 0.007871835
-1.2457851 -1.0982667 -0.40759522 -0.75966376 -0.4436999 -0.83857316 -0.7337056 -0.018932916
-0.96446925 -0.61427426 -0.0654239 -0.8718847 -0.12807447 -0.5270566 -0.26085442 -1.0743955
-0.69908196 -0.9409468 -0.7578768 -1.0452648 0.074322656 0.0062686773 -0.4226928 -0.70129615
-0.8412746 -0.86639583 -0.3015366 -0.19970721 0.06697472 -0.82798594 -1.03641 -0.44363654
-0.8266475 -0.46353433 0.3340352 -0.2479969 -0.71746266 -0.5785492 -0.7600368 -0.92766684
-0.7605678 -0.62045854 -0.77017796 -0.8184201 -0.5609779 -0.67419857 -0.19757417 -0.8722666
-0.7911412 0.10115832 -1.0376394 -0.94936526 -0.314626 -0.8353068 0.007105813 -0.8708417
-0.20871255 -1.0516149 -1.3566958 -1.0229865 -0.69767886 -0.6131527 -0.3753947 -0.75354177
-1.0711533 -0.54531974 -0.37575507 -0.9499888 -0.8637836 0.68312097 -0.30714378 0.13720357
0.61792856 -0.60884285 0.013349363 -0.12420208 -0.31930882 -0.16040705 -0.5791193 -0.75940305
-0.06393091 0.14545898 -0.24339119 -0.9038353 0.4051045 -1.0201889 0.30979815 -0.24842723
-0.85220885 -0.910202 -0.5723524 0.010956627 -0.26440057 -1.0648658 -0.70256376 0.4599366
-0.29100206 0.21878093 0.09251611 0.3390893 -0.73364645 0.2580017 0.39538628 0.11301019
-0.27177393 -0.16489162 -0.47934893 -0.445075 -0.9272226 -0.8943947 -0.9317469 -0.4676546
-0.24768808 -0.32520503 0.031719748 -0.53167933 -0.68663645 -0.74458426 -0.47436908 0.10968449
-0.610337 -0.17395309 -0.7361648 -0.91416234 -0.6654826 -0.9095155 -0.7748941 0.05988125
0.52243155 0.33233923 -0.3332776 1.1567876 -0.6045943 0.564716 -0.7383006 -0.86198103
-0.5369889 0.11921446 -0.6656802 -0.6996309 0.53304064 -0.4853334 0.46581638 -0.7270268
0.13545926 -0.38206083 -0.11887498 -0.5655238 0.08435324 -0.9107029 0.20539467 -0.472126
0.42300224 -0.6770705 0.024885843 -0.23142216 -0.17004111 -0.49996692 -0.5426814 -0.1634391
-0.38529307 -0.7140891 -0.07375118 -0.6721856 0.66397023 -0.6529306 -0.6122931 -0.64298433
-0.04058165 0.07774664 -0.008944524 0.029471641 -0.035288654 0.02367775 0.09241946 -0.033972792
0.08029797 -0.029214704 0.08755632 0.045284923 0.24348183 -0.07369968 0.00810065 -0.08204689
0.073377274 0.011945326 -0.05052988 -0.04118291 0.0017133706 -0.04314561 -0.11001575 -0.06379242
0.049196493 -0.015542561 0.23548172 -0.13438502 0.0065832613 -0.13160057 -0.020446433 0.10771624
-0.11397562 0.14611022 -0.14916076 0.03392479 0.01158416 -0.010517636 0.0058138487 0.026578763
0.05366249 -0.06389906 -0.046414495 -0.03929934 0.13966799 -0.05842443 0.14306296 0.08096252
0.058275215 -0.05273824 -0.20811664 -0.12725864 -0.3394737 0.2150375 0.026306713 0.046476282
00000000: cca2 edbe 8532 a1bd b8fd ffbe dc93 d4be
00000010: 2648 91bf a459 98bf 842b 84be 18d9 37bf
00000020: dec1 07bf 10c0 38bf 7246 70bf 00df a3bf
00000030: ffec d7be a967 29bf 6eab 84bf e97d 4dbf
00000040: e016 1fbf dff2 56bf 0092 26bf 2253 4dbf
00000050: caf3 91bf de8d 20be f549 d0be 6858 23bf
00000060: 7bf3 5dbf a43f 0abf 1a0b 6cbf d55a 9abe
00000070: e3c0 58bf a7da 04be b74f 2cbe def8 003c
00000080: e375 9fbf 0194 8cbf 52b0 d0be 5379 42bf
00000090: a22c e3be bbac 56bf 21d4 3bbf 3419 9bbc
000000a0: 75e7 76bf 1441 1dbf f7fc 85bd d633 5fbf
000000b0: f425 03be 2eed 06bf b68e 85be cb85 89bf
000000c0: 09f7 32bf e4e1 70bf 3704 42bf 3dcb 85bf
000000d0: 7a36 983d 7a69 cd3b 316b d8be 2588 33bf
000000e0: c65d 57bf 1ecc 5dbf 0163 9abe 0c80 4cbe
000000f0: 0b2a 893d e3f6 53bf 15a9 84bf 5424 e3be
00000100: 2c9f 53bf 5f54 edbe a906 ab3e e6f2 7dbe
00000110: a2ab 37bf cd1b 14bf c691 42bf 937b 6dbf
00000120: 92b4 42bf 5fd6 1ebf 622a 45bf fb83 51bf
00000130: 3f9c 0fbf 4798 2cbf e250 4abe dd4c 5fbf
00000140: 3b88 4abf 182c cf3d 5ed1 84bf 9a09 73bf
00000150: a916 a1be abd6 55bf e1d7 e83b 7bef 5ebf
00000160: beb8 55be 519b 86bf 35a8 adbf 39f1 82bf
00000170: 159b 32bf 93f7 1cbf bc33 c0be 1de8 40bf
00000180: 8d1b 89bf 139a 0bbf f862 c0be 7732 73bf
00000190: ec20 5dbf 04e1 2e3f f341 9dbe 187f 0c3e
000001a0: 9130 1e3f 20dd 1bbf 49b7 5a3c a95d febd
000001b0: 727c a3be bf41 24be 2a41 14bf 3d68 42bf
000001c0: 35ee 82bd 33f3 143e 8a3b 79be c061 67bf
000001d0: db69 cf3e 8d95 82bf dd9d 9e3e b563 7ebe
000001e0: 5c2a 5abf 0003 69bf b085 12bf 6d83 333c
000001f0: 835f 87be 864d 88bf 38db 33bf cf7c eb3e
00000200: 39fe 94be 1c08 603e 1679 bd3d 1d9d ad3e
00000210: 41d0 3bbf cc18 843e 1270 ca3e e371 e73d
00000220: f425 8bbe 59d9 28be 396d f5be dfe0 e3be
00000230: 765e 6dbf 0df7 64bf f786 6ebf 6c70 efbe
00000240: f2a1 7dbe 4681 a6be 91ec 013d 231c 08bf
00000250: 68c7 2fbf 139d 3ebf 81e0 f2be 43a2 e03d
00000260: 0c3f 1cbf c220 32be 4c75 3cbf 8b06 6abf
00000270: 115d 2abf 02d6 68bf 765f 46bf 0b46 753d
00000280: 13be 053f 5e28 aa3e 5da3 aabe 9e11 943f
00000290: b1c6 1abf 3a91 103f 4501 3dbf caaa 5cbf
000002a0: 1b78 09bf b626 f43d 056a 2abf 031b 33bf
000002b0: 5a75 083f 9f7d f8be 7c7f ee3e 6e1e 3abf
000002c0: d5b5 0a3e 7a9d c3be ba74 f3bd 2bc6 10bf
000002d0: 64c1 ac3d d323 69bf fb52 523e 80ba f1be
000002e0: c093 d83e 7e54 2dbf 65dd cb3c eef9 6cbe
000002f0: 421f 2ebe aafb ffbe 2bed 0abf 945c 27be
00000300: 2245 c5be 8bce 36bf dc0a 97bd 5b14 2cbf
00000310: f4f9 293f 7626 27bf 3ebf 1cbf 9f9a 24bf
00000320: f238 26bd a139 9f3d 0e8c 12bc 836e f13c
00000330: d68a 10bd d7f7 c13c 6a46 bd3d 0e27 0bbd
00000340: 4373 a43d ad53 efbc ba50 b33d af7c 393d
00000350: 4d53 793e dcef 96bd 97b8 043c 3308 a8bd
00000360: d346 963d 54b6 433c 6bf8 4ebd 69af 28bd
00000370: 2d93 e03a 73b9 30bd f04f e1bd 9aa5 82bd
00000380: 4382 493d 3aa6 7ebc 1f22 713e 3a9c 09be
00000390: 66b8 d73b 4dc2 06be 477f a7bc 559a dc3d
000003a0: 0d6c e9bd eb9d 153e 99bd 18be b8f4 0a3d
000003b0: 7dcb 3d3c 2a52 2cbc 1982 be3b b5bb d93c
000003c0: 33cd 5b3d 83dd 82bd 201d 3ebd 58f8 20bd
000003d0: 2005 0f3e 754e 6fbd 197f 123e adcf a53d
000003e0: feb1 6e3d 0e04 58bd 871c 55be 1750 02be
000003f0: 7fcf adbe ca32 5c3e 2d81 d73c ea5d 3e3d

gru_2.bias_hh_l0 f4 [300]
-0.46413267 -0.07870964 -0.4999826 -0.41519058 -1.1350143 -1.1902356 -0.2581445 -0.71815634
-0.5303019 -0.72168064 -0.9385749 -1.2802429 -0.42173 -0.661738 -1.0364816 -0.8027025
-0.6214428 -0.8396434 -0.6506653 -0.80204976 -1.1402524 -0.15679118 -0.40681425 -0.6380677
-0.86699647 -0.5400336 -0.9220444 -0.30147424 -0.8466932 -0.12974034 -0.16827284 0.007871835
-1.2457851 -1.0982667 -0.40759522 -0.75966376 -0.4436999 -0.83857316 -0.7337056 -0.018932916
-0.96446925 -0.61427426 -0.0654239 -0.8718847 -0.12807447 -0.5270566 -0.26085442 -1.0743955
-0.69908196 -0.9409468 -0.7578768 -1.0452648 0.074322656 0.0062686773 -0.4226928 -0.70129615
-0.8412746 -0.86639583 -0.3015366 -0.19970721 0.06697472 -0.82798594 -1.03641 -0.44363654
-0.8266475 -0.46353433 0.3340352 -0.2479969 -0.71746266 -0.5785492 -0.7600368 -0.92766684
-0.7605678 -0.62045854 -0.77017796 -0.8184201 -0.5609779 -0.67419857 -0.19757417 -0.8722666
-0.7911412 0.10115832 -1.0376394 -0.94936526 -0.314626 -0.8353068 0.007105813 -0.8708417
-0.20871255 -1.0516149 -1.3566958 -1.0229865 -0.69767886 -0.6131527 -0.3753947 -0.75354177
-1.0711533 -0.54531974 -0.37575507 -0.9499888 -0.8637836 0.68312097 -0.30714378 0.13720357
0.61792856 -0.60884285 0.013349363 -0.12420208 -0.31930882 -0.16040705 -0.5791193 -0.75940305
-0.06393091 0.14545898 -0.24339119 -0.9038353 0.4051045 -1.0201889 0.30979815 -0.24842723
-0.85220885 -0.910202 -0.5723524 0.010956627 -0.26440057 -1.0648658 -0.70256376 0.4599366
-0.29100206 0.21878093 0.09251611 0.3390893 -0.73364645 0.2580017 0.39538628 0.11301019
-0.27177393 -0.16489162 -0.47934893 -0.445075 -0.9272226 -0.8943947 -0.9317469 -0.4676546
-0.24768808 -0.32520503 0.031719748 -0.53167933 -0.68663645 -0.74458426 -0.47436908 0.10968449
-0.610337 -0.17395309 -0.7361648 -0.91416234 -0.6654826 -0.9095155 -0.7748941 0.05988125
0.52243155 0.33233923 -0.3332776 1.1567876 -0.6045943 0.564716 -0.7383006 -0.86198103
-0.5369889 0.11921446 -0.6656802 -0.6996309 0.53304064 -0.4853334 0.46581638 -0.7270268
0.13545926 -0.38206083 -0.11887498 -0.5655238 0.08435324 -0.9107029 0.20539467 -0.472126
0.42300224 -0.6770705 0.024885843 -0.23142216 -0.17004111 -0.49996692 -0.5426814 -0.1634391
-0.38529307 -0.7140891 -0.07375118 -0.6721856 0.66397023 -0.6529306 -0.6122931 -0.64298433
0.21940771 0.15907772 -0.11186967 -0.76324457 -0.13882749 0.0630329 0.23421127 0.55510104
0.088045396 0.31361675 0.30278414 0.15918334 0.05782486 0.25672156 -0.04729261 0.45204264
0.0070728683 0.025051361 0.022578299 -0.09372959 0.4546659 0.49881405 -0.1791306 0.35128328
-0.59563565 -0.46016708 -0.34422222 0.38942212 0.0038697296 -0.36919364 0.32274646 0.087771595
0.121799916 -0.12876268 -0.13864441 -0.11965606 0.3113769 -0.015843265 0.18209825 0.16090558
-0.35155824 -0.050608285 0.06932498 -0.05054912 -0.22748244 0.18600157 -0.29451334 -0.14356026
-0.6057947 -0.33384538 0.5307381 0.5780943 0.13662718 -0.30765957 -0.15288612 0.11168015
00000000: cca2 edbe 8532 a1bd b8fd ffbe dc93 d4be
00000010: 2648 91bf a459 98bf 842b 84be 18d9 37bf
00000020: dec1 07bf 10c0 38bf 7246 70bf 00df a3bf
00000030: ffec d7be a967 29bf 6eab 84bf e97d 4dbf
00000040: e016 1fbf dff2 56bf 0092 26bf 2253 4dbf
00000050: caf3 91bf de8d 20be f549 d0be 6858 23bf
00000060: 7bf3 5dbf a43f 0abf 1a0b 6cbf d55a 9abe
00000070: e3c0 58bf a7da 04be b74f 2cbe def8 003c
00000080: e375 9fbf 0194 8cbf 52b0 d0be 5379 42bf
00000090: a22c e3be bbac 56bf 21d4 3bbf 3419 9bbc
000000a0: 75e7 76bf 1441 1dbf f7fc 85bd d633 5fbf
000000b0: f425 03be 2eed 06bf b68e 85be cb85 89bf
000000c0: 09f7 32bf e4e1 70bf 3704 42bf 3dcb 85bf
000000d0: 7a36 983d 7a69 cd3b 316b d8be 2588 33bf
000000e0: c65d 57bf 1ecc 5dbf 0163 9abe 0c80 4cbe
000000f0: 0b2a 893d e3f6 53bf 15a9 84bf 5424 e3be
00000100: 2c9f 53bf 5f54 edbe a906 ab3e e6f2 7dbe
00000110: a2ab 37bf cd1b 14bf c691 42bf 937b 6dbf
00000120: 92b4 42bf 5fd6 1ebf 622a 45bf fb83 51bf
00000130: 3f9c 0fbf 4798 2cbf e250 4abe dd4c 5fbf
00000140: 3b88 4abf 182c cf3d 5ed1 84bf 9a09 73bf
00000150: a916 a1be abd6 55bf e1d7 e83b 7bef 5ebf
00000160: beb8 55be 519b 86bf 35a8 adbf 39f1 82bf
00000170: 159b 32bf 93f7 1cbf bc33 c0be 1de8 40bf
00000180: 8d1b 89bf 139a 0bbf f862 c0be 7732 73bf
00000190: ec20 5dbf 04e1 2e3f f341 9dbe 187f 0c3e
000001a0: 9130 1e3f 20dd 1bbf 49b7 5a3c a95d febd
000001b0: 727c a3be bf41 24be 2a41 14bf 3d68 42bf
000001c0: 35ee 82bd 33f3 143e 8a3b 79be c061 67bf
000001d0: db69 cf3e 8d95 82bf dd9d 9e3e b563 7ebe
000001e0: 5c2a 5abf 0003 69bf b085 12bf 6d83 333c
000001f0: 835f 87be 864d 88bf 38db 33bf cf7c eb3e
00000200: 39fe 94be 1c08 603e 1679 bd3d 1d9d ad3e
00000210: 41d0 3bbf cc18 843e 1270 ca3e e371 e73d
00000220: f425 8bbe 59d9 28be 396d f5be dfe0 e3be
00000230: 765e 6dbf 0df7 64bf f786 6ebf 6c70 efbe
00000240: f2a1 7dbe 4681 a6be 91ec 013d 231c 08bf
00000250: 68c7 2fbf 139d 3ebf 81e0 f2be 43a2 e03d
00000260: 0c3f 1cbf c220 32be 4c75 3cbf 8b06 6abf
00000270: 115d 2abf 02d6 68bf 765f 46bf 0b46 753d
00000280: 13be 053f 5e28 aa3e 5da3 aabe 9e11 943f
00000290: b1c6 1abf 3a91 103f 4501 3dbf caaa 5cbf
000002a0: 1b78 09bf b626 f43d 056a 2abf 031b 33bf
000002b0: 5a75 083f 9f7d f8be 7c7f ee3e 6e1e 3abf
000002c0: d5b5 0a3e 7a9d c3be ba74 f3bd 2bc6 10bf
000002d0: 64c1 ac3d d323 69bf fb52 523e 80ba f1be
000002e0: c093 d83e 7e54 2dbf 65dd cb3c eef9 6cbe
000002f0: 421f 2ebe aafb ffbe 2bed 0abf 945c 27be
00000300: 2245 c5be 8bce 36bf dc0a 97bd 5b14 2cbf
00000310: f4f9 293f 7626 27bf 3ebf 1cbf 9f9a 24bf
00000320: 6aac 603e 45e5 223e ed1b e5bd ff63 43bf
00000330: cb28 0ebe 6517 813d 14d5 6f3e 1a1b 0e3f
00000340: 2551 b43d 6092 a03e 8606 9b3e f500 233e
00000350: c3d9 6c3d 0271 833e e5b5 41bd 2272 e73e
00000360: 85c3 e73b 8338 cd3c 20f6 b83c 4df5 bfbd
00000370: f8c9 e83e 8e64 ff3e 036e 37be 67db b33e
00000380: 947b 18bf 059b ebbe e53d b0be 5662 c73e
00000390: 4a9b 7d3b f306 bdbe 063f a53e 98c1 b33d
000003a0: 3c72 f93d 5dda 03be cdf8 0dbe 3d0e f5bd
000003b0: cb6c 9f3e bcc9 81bc f777 3a3e 6fc4 243e
000003c0: 71ff b3be a24a 4fbd 41fa 8d3d 980c 4fbd
000003d0: 28f1 68be 3277 3e3e 74ca 96be 7601 13be
000003e0: 5d15 1bbf c8ed aabe 74de 073f fdfd 133f
000003f0: ffe7 0b3e 8e85 9dbe 2e8e 1cbe 90b8 e43d

gru_3.bias_ih_l0 f4 [300]
-0.1843588 -0.18798994 -0.57443005 -0.090518415 -0.81101876 -0.98465276 -0.5213507 -0.3781629
-0.4096881 0.13685723 0.6067234 -0.99082816 -0.5908248 -0.87187296 -0.22215678 -0.88511336
-0.90866816 -0.28894794 0.25116512 -0.34924105 0.502305 0.3102385 -0.3020081 -0.15410644
-0.6599042 -0.012596518 0.0454076 -1.2164557 -0.754618 -0.94624525 -0.4363723 -0.19731267
-0.2443091 -0.43505543 -0.8598293 -1.3004171 -1.3597053 -0.14894776 -0.1868022 -0.46440527
-0.8664518 -0.5766724 -0.6729749 -0.21374656 -1.0322176 -0.13226892 -1.2016107 -0.17749691
-0.70817685 -0.37337616 -0.36553946 -1.0496342 -0.7261838 -1.1902883 -0.7525464 -0.94957656
-0.64426714 -0.6609537 -0.6217545 -0.52742755 -1.1447128 0.09049545 -0.28827095 -1.184868
-1.5811946 -0.9598313 -1.0103196 -0.59623736 0.38934588 -0.009291467 0.85898834 -0.5728469
-0.2501414 -0.33424965 -0.15694909 -0.91547865 -0.34455416 -1.293231 -0.114480995 -0.20713057
-0.42495665 -0.40560633 0.25845423 -0.34011474 -0.8850107 -0.77255315 -0.30607304 0.3459578
-0.8033074 -0.6066392 -0.46202734 -0.881401 -0.05515478 -0.3644117 0.09785262 -0.59897286
-0.38193372 -0.37036014 -0.42885754 -0.72531676 -1.5038552 -0.61785597 -0.76523054 1.538462
-0.52021873 -0.43373796 -0.6301195 -0.20541082 -0.7038626 0.017281454 -1.3060044 -0.7212804
-0.63155293 -0.79805005 -0.68652 -0.5730712 -0.9730686 -0.96531844 -0.7869487 -0.25830838
-1.604452 -0.9502277 -0.74892217 -1.9876264 -1.0483255 1.3485012 0.21649893 -0.8617587
-1.2446089 -0.73006725 -0.65291226 -0.54804105 -0.0025528008 -0.31740478 -1.0994937 -0.8596834
-0.6299226 -0.6029103 -0.73476374 -0.2942084 -0.41026798 -0.33913356 -0.34180388 -0.27103093
-0.51219505 -0.2969838 -0.8707826 -0.92312795 -0.5610475 -0.5376157 -0.8382813 -0.49892527
-0.73439544 -0.50360006 -0.7603075 -0.79598594 -0.837877 -0.7792881 -0.8267132 -0.7181749
-1.4512578 0.066450484 -1.3596513 -0.70290273 -0.85349375 -0.99643135 -0.34646305 0.03957679
-0.59236896 -0.20980877 -0.8775517 -0.10424018 -0.50859135 -0.48604795 -1.0109243 -0.2643365
-0.87221694 -0.52311325 -0.8977169 -0.5574947 0.3543811 -0.6680745 -0.14145546 -0.5360796
-0.8384682 -1.6587477 -0.87176657 0.49217635 -0.8626152 -0.8087202 -0.44194114 -0.4969115
-0.3438997 -0.42014182 -0.86308384 -1.110006 -0.75389314 -1.652747 -0.14542054 -1.232928
0.06549069 0.11353887 -0.10698417 -0.03645256 0.10610981 0.036847074 -0.035569932 0.0748398
-0.07683152 0.019567294 0.13219485 -0.037424818 0.091156565 -0.08041458 0.07713174 -0.114342935
-0.04462644 0.07843331 0.5062576 0.3424342 0.042739138 0.09145134 -0.08265758 -0.011156143
0.07866572 0.047053926 0.44743767 -0.11809329 0.13933718 0.048801612 0.096564926 0.028003879
-0.24287824 -0.08173039 0.039184 -0.06392092 -0.057618972 -0.009377906 -0.08157731 -0.24440686
0.10200718 0.15342574 0.16460374 -0.31798258 -0.08391483 0.0554875 0.01228961 0.28544047
0.023359751 0.08822107 0.047701806 -0.018309658 0.068244144 -0.012140564 -0.11238104 -0.004034331
00000000: 8ec8 3cbe 6f80 40be d90d 13bf b861 b9bd
00000010: ed9e 4fbf 3412 7cbf 3d77 05bf 919e c1be
00000020: a3c2 d1be 4d24 0c3e 3a52 1b3f eaa6 7dbf
00000030: 4b40 17bf 1133 5fbf 117d 63be ca96 62bf
00000040: 7a9e 68bf fcf0 93be b798 803e b9cf b2be
00000050: 0f97 003f 95d7 9e3e cea0 9abe 14ce 1dbe
00000060: 7bef 28bf a061 4ebc 52fd 393d d2b4 9bbf
00000070: a52e 41bf 213d 72bf 316c dfbe 550c 4abe
00000080: 2a2c 7abe 96bf debe c61d 5cbf 1174 a6bf
00000090: d30a aebf c385 18be 1349 3fbe 87c6 edbe
000000a0: c9cf 5dbf cda0 13bf 1548 2cbf 61e0 5abe
000000b0: b51f 84bf 8171 07be 61ce 99bf c0c1 35be
000000c0: 144b 35bf 292b bfbe fd27 bbbe 6a5a 86bf
000000d0: 2ee7 39bf 5e5b 98bf e2a6 40bf 7317 73bf
000000e0: b1ee 24bf 4334 29bf 4e2b 1fbf 7e05 07bf
000000f0: f385 92bf ae55 b93d 4098 93be c1a9 97bf
00000100: 9664 cabf 81b7 75bf 2752 81bf 03a3 18bf
00000110: 5858 c73e 3d3b 18bc a9e6 5b3f 18a6 12bf
00000120: 8912 80be c522 abbe 43b7 20be cf5c 6abf
00000130: 6769 b0be 9888 a5bf 0375 eabd 091a 54be
00000140: eb93 d9be a2ab cfbe 1d54 843e 8523 aebe
00000150: 1090 62bf 0bc6 45bf 9bb5 9cbe 6121 b13e
00000160: 8ea5 4dbf b54c 1bbf d98e ecbe 7fa3 61bf
00000170: fbe9 61bd 2c94 babe f466 c83d 4956 19bf
00000180: d18c c3be d89f bdbe 3793 dbbe 5cae 39bf
00000190: 547e c0bf cf2b 1ebf 26e6 43bf 53ec c43f
000001a0: 0e2d 05bf e712 debe 834f 21bf 3757 52be
000001b0: 5730 34bf d691 8d3c 272b a7bf d5a5 38bf
000001c0: 74ad 21bf 024d 4cbf c6bf 2fbf cbb4 12bf
000001d0: 061b 79bf 1c1f 77bf 7875 49bf ff40 84be
000001e0: af5e cdbf 1f42 73bf 5db9 3fbf 8b6a febf
000001f0: 882f 86bf b09b ac3f e5b1 5d3e 389c 5cbf
00000200: 584f 9fbf b0e5 3abf 4225 27bf 6b4c 0cbf
00000210: e44c 27bb e182 a2be 36bc 8cbf 3614 5cbf
00000220: 9c42 21bf 5458 1abf 7a19 3cbf 7ca2 96be
00000230: a50e d2be eaa2 adbe eb00 afbe 91c4 8abe
00000240: 371f 03bf 430e 98be 9ceb 5ebf 1d52 6cbf
00000250: cfa0 0fbf 2fa1 09bf 9a99 56bf 2273 ffbe
00000260: 5701 3cbf efeb 00bf 83a3 42bf bcc5 4bbf
00000270: 1b7f 56bf 6d7f 47bf 7aa3 53bf 4fda 37bf
00000280: d1c2 b9bf 3117 883d 0e09 aebf 6ff1 33bf
00000290: 917e 5abf 2016 7fbf 9b63 b1be 461b 223d
000002a0: 7ea5 17bf 1cd8 56be 3aa7 60bf e07b d5bd
000002b0: 0b33 02bf 47db f8be f865 81bf 1d57 87be
000002c0: 9c49 5fbf c0ea 05bf c6d0 65bf f9b7 0ebf
000002d0: 7171 b53e ee06 2bbf b3d9 10be 833c 09bf
000002e0: daa5 56bf d851 d4bf 182c 5fbf 8afe fb3e
000002f0: 5ad4 5cbf 4908 4fbf 1c46 e2be 2f6b febe
00000300: 9f13 b0be d41c d7be 10f3 5cbf ad14 8ebf
00000310: 24ff 40bf 378d d3bf 1fe9 14be 96d0 9dbf
00000320: fc1f 863d 1187 e83d 841a dbbd 484f 15bd
00000330: 1a50 d93d f5ec 163d c7b1 11bd 9c45 993d
00000340: d859 9dbd 974b a03c 165e 073e c44a 19bd
00000350: 4bb0 ba3d 66b0 a4bd 3ff7 9d3d a12c eabd
00000360: 37ca 36bd a5a1 a03d 199a 013f 8953 af3e
00000370: 3c0f 2f3d d74a bb3d 6148 a9bd 41c8 36bc
00000380: 7e1b a13d 9ebb 403d 8d16 e53e e5da f1bd
00000390: 68ae 0e3e 33e4 473d d5c3 c53d 6468 e53c
000003a0: 13b5 78be 4362 a7bd 677f 203d f9e8 82bd
000003b0: df01 6cbd caa5 19bc 0112 a7bd cb45 7abe
000003c0: 24e9 d03d a31b 1d3e e28d 283e 9dce a2be
000003d0: 8adb abbd dc46 633d 5c5a 493c 4125 923e
000003e0: f35c bf3c 40ad b43d f862 433d 23fe 95bc
000003f0: 96c3 8b3d 37e9 46bc 0828 e6bd 6c32 84bb
